policy.pt (torch, 38394 bytes, 9 tensors)

conv.0.weight f4 [16, 3, 3, 3]
0	0xbd8272b4	-0.06369534
1	0x3da0c1e5	0.078494824
2	0x3e1e0bf6	0.1543425
3	0xbd25c1f2	-0.040468164
4	0x3d97ff97	0.07421797
5	0xbdb96360	-0.090521574
6	0x3e2bd405	0.16780098
7	0x3dd5bff7	0.10437005
8	0x3e0d0c53	0.13774233
9	0xbe016c5c	-0.12638992
10	0x3c9bf8b0	0.019039482
11	0x3e2793ad	0.16364928
12	0xbca3df64	-0.020003982
13	0xbe1c48ca	-0.15262142
14	0x3e2eae9a	0.17058793
15	0x3dd37597	0.10325163
16	0xbc6ebb74	-0.0145710595
17	0xbe008d43	-0.12553887
18	0xbc491114	-0.012272138
19	0x3e3db59a	0.18526307
20	0xbe35ed18	-0.17766225
21	0xbdbe8082	-0.09301855
22	0xbd27d4e9	-0.04097453
23	0xbe0e9411	-0.1392367
24	0xbd0b7a0b	-0.034051936
25	0x3dd658bc	0.104661435
26	0x3e080f28	0.13287032
27	0xbdfdb540	-0.12388086
28	0xbdaae598	-0.08344573
29	0xbe050f72	-0.12994173
30	0xbd5200ec	-0.05127041
31	0x3dbce5f5	0.09223548
32	0xbe08b767	-0.13351212
33	0x3d5ca585	0.05386879
34	0x3e46e699	0.19423904
35	0x3d113053	0.035446476
36	0x3e3e2639	0.18569268
37	0x3e39d9b0	0.18149447
38	0xbdebadbb	-0.11507746
39	0xbe103f79	-0.14086713
40	0xbe2bb12d	-0.16766806
41	0x3d705e0b	0.058683436
42	0x3e06b92f	0.1315658
43	0x3e1487ad	0.14504881
44	0xbda74dd9	-0.08169145
45	0xbd4e6dd2	-0.0503977
46	0xbe34b70d	-0.17647953
47	0xbe145b75	-0.14488013
48	0x3e055c2d	0.13023444
49	0x3dd31d6e	0.10308348
50	0x3d9962bf	0.074895374
51	0x3e0de892	0.1385825
52	0xbe0af74d	-0.135709
53	0x3cea05e7	0.028567268
54	0x3d9f9034	0.077911764
55	0xbbbe4246	-0.0058062403
56	0x3d88ca1d	0.06679175
57	0x3e0a6153	0.13513689
58	0x3e2f4a5c	0.1711821
59	0xbe0794ac	-0.13240308
60	0xbdfba0ae	-0.122865066
61	0x3d9fe3de	0.07807134
62	0x3d574fb3	0.05256624
63	0x3e3077a9	0.17233147
64	0xbd3676b4	-0.044546798
65	0x3e2163db	0.15760748
66	0xb3fa6c00	-1.1661177e-07
67	0x3e438418	0.19093359
68	0xbc250261	-0.010071368
69	0xbe1c7eab	-0.15282695
70	0xbe317d35	-0.17332919
71	0x3e3aba18	0.18235052
72	0x3e359081	0.17730905
73	0x3e3b6dcd	0.18303604
74	0xbdc8f83a	-0.098129705
75	0x3e02da84	0.1277867
76	0x3e19e47b	0.15028565
77	0x3c17930b	0.009251366
78	0x3dac715d	0.0842006
79	0xbc64e0c1	-0.013969601
80	0x3e3632b2	0.17792776
81	0xbe23f864	-0.16012722
82	0x3d4811f1	0.048845235
83	0x3d429a2c	0.04751031
84	0xbe30dcac	-0.1727168
85	0x3e3026d9	0.17202319
86	0x3e2d6a84	0.16935164
87	0x3e4ae495	0.1981376
88	0x3ddba872	0.10725488
89	0x3d8224f4	0.063547045
90	0x3dd6d7f6	0.1049041
91	0x3e2833e8	0.1642605
92	0xbd3f958e	-0.046773486
93	0x3df686bc	0.12037417
94	0xbe213157	-0.15741478
95	0xbde92859	-0.11384649
96	0x3daf6e24	0.085659295
97	0xbe08a294	-0.13343269
98	0xbd1989dd	-0.037484992
99	0x3e35139a	0.17683259
100	0xbbc8c037	-0.0061264294
101	0xbcfe9a8e	-0.031079557
102	0xbe1aa40a	-0.15101638
103	0xbcd7c6a8	-0.026339844
104	0xbd5dfe63	-0.05419768
105	0xbdbde474	-0.092720896
106	0xbdc01ed8	-0.09380883
107	0xbbae0fd2	-0.0053119445
108	0xbd694e24	-0.056959286
109	0x3c9415ab	0.018076738
110	0x3d912be6	0.07088451
111	0x3d7983b3	0.060916614
112	0x3df7fecf	0.12109148
113	0x3e3eb532	0.18623808
114	0x3d6e2fe5	0.058151145
115	0x3d154cd6	0.03645023
116	0xbe388141	-0.18018056
117	0x3d7734e8	0.06035319
118	0xbdd4d688	-0.10392481
119	0xbe2da6e6	-0.16958198
120	0x3dcbc326	0.09949331
121	0x3e09f967	0.13474046
122	0x3e22bbbb	0.15891926
123	0x3e063946	0.13107786
124	0xbdda8b7f	-0.10671138
125	0xbd898f40	-0.06716776
126	0x3dd66be1	0.10469795
127	0x3e1879c0	0.14890194
128	0x3e2e1f21	0.17004062
129	0xbd292fb2	-0.04130525
130	0xbc92f4bf	-0.01793897
131	0xbc7e308f	-0.015514507
132	0xbe28a87f	-0.16470526
133	0x3e2f474f	0.17117046
134	0xbdf4fd77	-0.11962407
135	0x3e23e2cf	0.1600449
136	0xbd954ffd	-0.07290647
137	0xbccd37c0	-0.025050998
138	0x3d29eba2	0.041484483
139	0xbdbfeaa2	-0.093709245
140	0x3d7bd08e	0.06147819
141	0x3dc762c4	0.09735635
142	0x3e16f87c	0.14743227
143	0x3bac6658	0.0052612238
144	0xbdf771fb	-0.12082287
145	0xbdfae242	-0.122501865
146	0xbd45fc49	-0.0483363
147	0xbdf9a7e2	-0.12190224
148	0x3e3b0a57	0.18265663
149	0xbd435ff1	-0.04769892
150	0x3ddc70bb	0.10763689
151	0xbc1d3f8a	-0.009597668
152	0x3e1d1e33	0.15343551
153	0x3d9dbae2	0.07701661
154	0xbdd5164b	-0.10404643
155	0x3e430845	0.19046123
156	0x3e0dae6e	0.13836071
157	0x3de4b689	0.11167628
158	0xbcd2fecf	-0.025756268
159	0xbe1d78c1	-0.15378095
160	0xbd913b52	-0.070913926
161	0xbe2ef77b	-0.17086594
162	0xbcb1b339	-0.021691905
163	0x3cd84112	0.026398215
164	0xbd569736	-0.0523903
165	0x3e1e9d53	0.15489702
166	0x3dbf0a92	0.09328188
167	0xbc646498	-0.013939999
168	0xbc6fa052	-0.014625626
169	0x3bc37e3e	0.005965977
170	0xbe2840ca	-0.16430965
171	0x3dfbc9e0	0.12294364
172	0xbdf207f1	-0.11817921
173	0xbe2e1c77	-0.17003046
174	0xbd5ffb21	-0.054682855
175	0x3e473330	0.1945312
176	0xbccca9e3	-0.024983352
177	0x3e1fd63e	0.1560907
178	0x3e241e07	0.1602708
179	0xbcfa8650	-0.030581623
180	0x3e46f9da	0.19431248
181	0xbc918f4b	-0.017768523
182	0x3e4802e7	0.19532357
183	0x3e4ff3dc	0.20307869
184	0xbd81e3a2	-0.06342246
185	0x3dae023d	0.08496521
186	0xbda225a2	-0.07917334
187	0x3d0d60cb	0.034516137
188	0x3df8576a	0.12126048
189	0x3e3bf0ac	0.18353528
190	0xbe3a020f	-0.18164848
191	0x3da6f22b	0.081516586
192	0xbe071da6	-0.13194904
193	0x3e42898d	0.18997784
194	0xbdf604c9	-0.120126314
195	0x3dde1881	0.108445175
196	0xbd8df672	-0.06931771
197	0xbe206873	-0.15664844
198	0x3e4e1bb2	0.20127752
199	0x3de9f18f	0.11423027
200	0x3dba72b2	0.09103908
201	0xbcad1b93	-0.021131312
202	0x3ce8ab1d	0.028401906
203	0xbdf542a7	-0.119756036
204	0xbdb6d983	-0.08928206
205	0x3d2b16b2	0.04176969
206	0xbdaa1790	-0.083052754
207	0xbd15ae78	-0.03654334
208	0x3cb637b2	0.022243354
209	0xbdcf0842	-0.10108997
210	0x3d10625c	0.035250053
211	0xbe00faba	-0.12595645
212	0x3e0aa9cf	0.1354134
213	0xbda7c2de	-0.08191465
214	0xbdb59018	-0.08865374
215	0x3e0ea57e	0.13930318
216	0xbd518023	-0.05114759
217	0x3d8ab90e	0.06773578
218	0x3e2c3018	0.16815221
219	0xbe33c550	-0.17555737
220	0xbdd2bd23	-0.10289981
221	0xbd80bcd3	-0.06286015
222	0xbe080987	-0.13284884
223	0x3dc90350	0.09815085
224	0xbd29a226	-0.041414402
225	0xbe16389c	-0.14670032
226	0xbe298149	-0.16553225
227	0xbc98afb8	-0.018638477
228	0x3cec2aad	0.028828943
229	0x3de528ef	0.11189448
230	0xbd829762	-0.0637653
231	0x3df04d80	0.11733532
232	0x3d206bac	0.039165184
233	0xbdc5835a	-0.09644194
234	0xbe407c32	-0.18797377
235	0xbe33f74d	-0.17574807
236	0x3d92ce23	0.07168224
237	0x3daf1d0f	0.08550464
238	0xbda891f6	-0.08230965
239	0xbdd8b06e	-0.10580526
240	0x3c4c78b1	0.012479947
241	0xbddf1139	-0.10891957
242	0xbe3dec33	-0.18547134
243	0x3de725e9	0.11286528
244	0x3bf2dff4	0.007411951
245	0x3e1f0727	0.15530072
246	0xbe141486	-0.14460954
247	0x3dce3353	0.10068383
248	0x3ddaf662	0.10691525
249	0xbde722c6	-0.112859294
250	0xbdb94174	-0.09045687
251	0xbe1b714b	-0.15179937
252	0xbd444a6e	-0.047922544
253	0x3d90cfbe	0.07070874
254	0xbdd120ff	-0.10211372
255	0x3dab1ad7	0.08354729

conv.0.bias f4 [16]
0	0xbdd54dc4	-0.10415223
1	0x3df75852	0.12077393
2	0xbcaf7962	-0.021420185
3	0x3e2f50ae	0.1712062
4	0x3e26e832	0.16299513
5	0x3e349138	0.17633522
6	0x3c69d0d5	0.014270981
7	0x3d8a9241	0.06766177
8	0xbe0918b2	-0.13388327
9	0x3e40aaaa	0.18815103
10	0x3d720215	0.059084017
11	0xbe2b73d8	-0.1674341
12	0x3dee2561	0.11628223
13	0xbe11363c	-0.14180845
14	0x3de1e40f	0.11029827
15	0x3dc05e1e	0.093929514

conv.2.weight f4 [32, 16, 3, 3]
0	0xbcc97054	-0.024589695
1	0x3cbcb291	0.023034366
2	0xbd42de13	-0.047575068
3	0x3ca7e7fc	0.020496361
4	0x3cafe386	0.021470796
5	0xbd7dad13	-0.061932635
6	0x3cb7ac38	0.022420987
7	0x3dbab63f	0.09116792
8	0x3da856bf	0.082196705
9	0xbc9edbfa	-0.019392002
10	0xbd353f0d	-0.044249583
11	0xbadab362	-0.001668554
12	0xba661f4f	-0.0008778469
13	0xbd7e3586	-0.062062763
14	0x3d2537de	0.040336482
15	0xbd5d44a0	-0.054020524
16	0xbc818e77	-0.015815003
17	0xbc8eb44b	-0.017419955
18	0x3d2866bf	0.04111361
19	0x3d017903	0.031609546
20	0xbcea768b	-0.028620979
21	0x3d053fa4	0.032531396
22	0xbc888383	-0.016664272
23	0x3b2d7044	0.002646462
24	0x3c84b9b9	0.01620184
25	0x3ce0f939	0.027462589
26	0x3d9ae075	0.07562343
27	0x3d88a8c1	0.06672812
28	0xbc68f900	-0.0142195225
29	0x3d8c7cef	0.06859767
30	0xbcf717e3	-0.030162757
31	0x3bcc09a8	0.006226737
32	0x3dba2334	0.09088746
33	0xbb02fe24	-0.0019987905
34	0x3c390def	0.011294826
35	0xbd2e4131	-0.04254264
36	0xbd066af9	-0.03281686
37	0xbb962271	-0.0045817425
38	0x3ce43171	0.027855607
39	0x3c94c371	0.0181596
40	0x3d94b8da	0.0726182
41	0x3da07bbd	0.07836101
42	0x3d7279e9	0.059198294
43	0x3d95801d	0.07299826
44	0x3d9a1b30	0.07524717
45	0xbd90915a	-0.070589736
46	0x3d8face0	0.07015395
47	0xbd8e7a35	-0.06956903
48	0x3d4b707c	0.04966782
49	0x3d627a5b	0.05529247
50	0x3d80ec10	0.06295025
51	0x3da1bcf0	0.07897365
52	0xbd2158ae	-0.039391212
53	0xbd6c7e9f	-0.057737943
54	0xbc40bf96	-0.011764428
55	0x3cfe772c	0.031062685
56	0x3cc26aad	0.023732508
57	0xbbea7726	-0.007155317
58	0x3cb5eec0	0.022208571
59	0xbce372cf	-0.027764706
60	0x3c6e8291	0.014557497
61	0xbd214925	-0.039376397
62	0xbcd9b740	-0.026576638
63	0xbd10738f	-0.035266455
64	0xbcb81651	-0.022471579
65	0x3d4e65a4	0.0503899
66	0xbda882a1	-0.082280405
67	0x3d5d34a1	0.05400527
68	0x3d9185ad	0.07105575
69	0xbcfbb174	-0.030724265
70	0xbd8e3db1	-0.069453605
71	0x3d50981b	0.05092631
72	0x3d9e459e	0.07728122
73	0xbbd3d9eb	-0.006465187
74	0xbce385f0	-0.027773827
75	0xbd3bcb4b	-0.045848172
76	0xbd4addf6	-0.049528085
77	0xbd94f402	-0.07273103
78	0xbd6b74ab	-0.05748431
79	0xbc4b7a20	-0.012419254
80	0x3da985de	0.08277486
81	0x3ca2a783	0.019855266
82	0xbd9743cd	-0.07385979
83	0x3d968b4e	0.07350789
84	0x3d814881	0.06312657
85	0x3d4ff7bd	0.05077337
86	0xbd165b77	-0.03670832
87	0x3d77e139	0.060517523
88	0x3d9fd043	0.07803395
89	0xbd8318c1	-0.06401206
90	0x3c55287a	0.013010139
91	0x3cf0cc42	0.029394273
92	0xbd134adb	-0.03596006
93	0xbd36d57a	-0.04463718
94	0x3db1de11	0.08684934
95	0x3d86f5b2	0.065898314
96	0xbb922b3b	-0.00446072
97	0x3da0125a	0.07816
98	0xbd87cf8d	-0.06631384
99	0xbd87bdae	-0.066279754
100	0xbd79895c	-0.06092201
101	0x3d294a3a	0.041330554
102	0x3c16b077	0.009197346
103	0x3dd1efba	0.10250802
104	0x3bf35e75	0.0074270316
105	0x3c0ad2e5	0.008473133
106	0xbd0118fa	-0.03151796
107	0xbda27915	-0.07933251
108	0xbd4f5a24	-0.050623074
109	0x3d97065d	0.073742606
110	0xbcba6b5b	-0.02275627
111	0xbd8733d7	-0.066016845
112	0x3da060e1	0.07830978
113	0xbd5d60b6	-0.05404731
114	0x3da987cd	0.08277855
115	0x3dba871d	0.09107802
116	0xbcdecb03	-0.027196413
117	0xbcb7cb8e	-0.02243593
118	0x3c963ed5	0.018340508
119	0xbd3cf4fc	-0.046132073
120	0x3e508026	0.20361385
121	0x3e2a37f2	0.16622904
122	0x3dd46c87	0.103722624
123	0xbd527a18	-0.05138597
124	0xbbc14bf5	-0.0058989474
125	0x3c8561f0	0.016282052
126	0x3d716a84	0.05893947
127	0x3e74820a	0.23877731
128	0x3d27be32	0.04095287
129	0xbd118a50	-0.035532296
130	0x3e21381d	0.15744062
131	0xbd398598	-0.04529342
132	0x3b5c58c7	0.0033622251
133	0x3e3d04b6	0.18458828
134	0x3df14829	0.117813416
135	0x3d971496	0.07376973
136	0xbd428c4d	-0.047497083
137	0x3d0018fc	0.031273827
138	0xbcefeb29	-0.029286938
139	0x3c725211	0.014790074
140	0x3d91b44e	0.071144685
141	0x3c388214	0.011261482
142	0xbd34b434	-0.044117168
143	0xbd81ef36	-0.06344454
144	0x3d8b7460	0.06809306
145	0xbd674118	-0.056458563
146	0x3992ed56	0.0002802412
147	0xbd957a63	-0.07298734
148	0xbc638ac0	-0.013888061
149	0x3d41726e	0.04722827
150	0xbd8b58d2	-0.068040505
151	0xbd71840b	-0.058963817
152	0x3d37ba40	0.044855356
153	0xbb9b27d6	-0.0047349734
154	0x3cb6d886	0.022320043
155	0xbb6cc000	-0.0036125183
156	0xbd140848	-0.03614071
157	0x3d6cf54b	0.057851117
158	0x3d39d09e	0.04536497
159	0x3cc4afd0	0.024009615
160	0x3d3ee280	0.046602726
161	0xbd84293e	-0.06453179
162	0x3a3f2a00	0.000729233
163	0xbd9be5d2	-0.07612194
164	0x3d4f4620	0.050603986
165	0xbd464490	-0.04840523
166	0x3d136873	0.035988282
167	0xbc9c9c70	-0.019117564
168	0x3cab0790	0.02087763
169	0x3c97f566	0.018549632
170	0xbc195f16	-0.009361049
171	0xbcdc1c06	-0.026868831
172	0x3c5fb5c0	0.013654172
173	0xbd286ad8	-0.04111752
174	0xbcb31f3b	-0.021865478
175	0x3c2f4de0	0.010699719
176	0x3d945e22	0.07244517
177	0x3c862336	0.016374212
178	0x3d4185a8	0.047246605
179	0x3d6c77ce	0.057731442
180	0xbd8f49a0	-0.06996465
181	0xbd17566b	-0.03694765
182	0xbbb1fc80	-0.0054317117
183	0x3d3d5f03	0.04623319
184	0xbd2ee976	-0.042703114
185	0xbc9dc850	-0.019260556
186	0xbc0c8816	-0.008577367
187	0x3d5cc710	0.05390078
188	0xbd653efb	-0.055968266
189	0x3d88a4c8	0.066720545
190	0x3d8a70da	0.06759806
191	0xbd202863	-0.039101016
192	0xbd124256	-0.035707794
193	0xbd9459ff	-0.07243728
194	0xb9ad9d56	-0.00033114356
195	0xbd14eba6	-0.036357544
196	0xbd755860	-0.059898734
197	0x3caa4af6	0.020787697
198	0x3cc1759b	0.023615649
199	0xbd97d186	-0.0741301
200	0xbd9c8dfc	-0.07644269
201	0x3d592233	0.05301113
202	0xbd5fdb08	-0.054652244
203	0xbd16e80b	-0.036842387
204	0xbd67454e	-0.05646258
205	0xbca444c0	-0.020052314
206	0xbcb6dc46	-0.022321831
207	0xbd7e544b	-0.062092107
208	0x3da8d97a	0.08244605
209	0x3cc0c606	0.023531925
210	0xbd9ac937	-0.0755791
211	0x3c0d4c0b	0.008624087
212	0xbd28fd9e	-0.041257493
213	0xbca8bcd0	-0.020597845
214	0x3d7f4746	0.06232383
215	0x3d0baa4b	0.03409795
216	0xbc9716c6	-0.018443476
217	0xbd4193bb	-0.047260027
218	0x3d65a060	0.05606115
219	0x3d77d1f8	0.060502976
220	0x3d22813b	0.039674025
221	0xbd7c0708	-0.061530143
222	0x3da36c98	0.07979697
223	0x3c102ccb	0.008799742
224	0xbcff1006	-0.03113557
225	0x3c629c6b	0.013831238
226	0xbda6044a	-0.08106287
227	0x3c0a5b00	0.008444548
228	0x3d32ee06	0.043684028
229	0x3c83f97b	0.016110172
230	0xbcd29686	-0.02570654
231	0xbcc151c6	-0.023598563
232	0x3ce50776	0.02795766
233	0xbd15c6ee	-0.036566667
234	0x3da773a8	0.081763566
235	0x3cb2be96	0.021819394
236	0x3d169eb0	0.03677243
237	0xbd4dcb13	-0.050242495
238	0x3d832d7a	0.06405158
239	0x3d045768	0.03230992
240	0xbd15408b	-0.036438506
241	0xbd8fab47	-0.070150904
242	0xbaea4600	-0.0017873645
243	0x3d685f68	0.05673161
244	0x3d26ac96	0.040691935
245	0xbd8c5548	-0.068522036
246	0x3d2aaf4b	0.04167108
247	0xbd87794c	-0.066149324
248	0x3cd59990	0.0260742
249	0xbd94ce0f	-0.07265865
250	0x3da3b534	0.07993546
251	0xbd07688e	-0.033058695
252	0xbd8bfa7f	-0.06834888
253	0xbbf2236b	-0.007389476
254	0xbbc19296	-0.005907367
255	0x3badc66b	0.0053031943

conv.2.bias f4 [32]
0	0xbd189a2b	-0.0372564
1	0xbd9b6fb6	-0.075896665
2	0x3cd26c8d	0.025686527
3	0xbd31c37d	-0.043399323
4	0x3dc24b1b	0.094869815
5	0xbd2d1600	-0.04225731
6	0xbba4cee1	-0.0050295447
7	0xbd2e6aa1	-0.042582158
8	0x3bbdc897	0.0057917344
9	0x3dc1bac0	0.09459448
10	0x3d0e6fd2	0.03477461
11	0xbd75f17b	-0.060044747
12	0xbd400600	-0.046880722
13	0x3d6ee31a	0.05832205
14	0xbdb3cbeb	-0.08779129
15	0xbd5b518a	-0.05354456
16	0x3d8a3668	0.067486584
17	0x3c0daf74	0.008647788
18	0xbd40fe01	-0.047117237
19	0xbd3e2e43	-0.046430837
20	0x3db2b6ad	0.08726249
21	0xbc5e553a	-0.013570124
22	0xbc53c2ae	-0.012924833
23	0x3c45be55	0.0120693045
24	0xbccbe37d	-0.024888748
25	0x3def8a2b	0.11696275
26	0x3cca5391	0.02469805
27	0x3c83d441	0.016092421
28	0xbd1fb142	-0.038987406
29	0xbcb4e53c	-0.022081964
30	0xbd5bef7f	-0.0536952
31	0x3df5f4d6	0.120095894

text_embed.weight f4 [8, 16]
0	0xbf8800ef	-1.0625285
1	0x3fd46911	1.6594564
2	0xbf815855	-1.0105082
3	0x3e800790	0.2500577
4	0xbf58cf14	-0.84690976
5	0x3f47b2b6	0.78007066
6	0x3f4077b4	0.7518265
7	0x3ecae62e	0.39628738
8	0x3f581573	0.8440773
9	0xbfcaa537	-1.583167
10	0xbf680bd1	-0.9064303
11	0x3e629d1c	0.22130245
12	0x3f866018	1.0498075
13	0x3f310bf1	0.69158846
14	0x3fcd43bb	1.6036295
15	0x3f220ddb	0.6330239
16	0x3f019fa2	0.50634205
17	0x3dd88238	0.10571712
18	0x3f845c8d	1.0340744
19	0xbd148eac	-0.036268875
20	0x3fa6c937	1.3030156
21	0x3fa8fbbe	1.3201826
22	0x401b0d82	2.4226995
23	0x3f259783	0.64684314
24	0xbf87117d	-1.0552212
25	0xbfaf38e9	-1.3689243
26	0xbf29733f	-0.66191477
27	0xbfedf4a8	-1.8590288
28	0xbd151841	-0.036400083
29	0x3ce2188b	0.027599594
30	0x3f089e8c	0.53366923
31	0xbfb898a1	-1.4421579
32	0xbede961f	-0.43473908
33	0x3f2da553	0.6783039
34	0x400a46fc	2.1605825
35	0xbf8f4f14	-1.1196008
36	0xbea45548	-0.32096314
37	0x3f228d2b	0.63496655
38	0xbe69ab8a	-0.22819343
39	0x3eb15e9e	0.346425
40	0x3ea53a4a	0.32271034
41	0xbe91e1fc	-0.28492725
42	0xbf37a563	-0.71736735
43	0xbf7f4d74	-0.9972756
44	0x402953f0	2.6457481
45	0xbecfb06f	-0.40564296
46	0x3eea7d4f	0.45798728
47	0x3df48b86	0.119406745
48	0x3fccb481	1.5992585
49	0xbf669739	-0.900745
50	0x3f11c83a	0.56946146
51	0xbe7fa760	-0.24966192
52	0xbeabc0f0	-0.33545637
53	0xbe1a8e37	-0.15093313
54	0x3e06f64e	0.13179895
55	0xbfd4098b	-1.6565412
56	0xbfd49368	-1.6607485
57	0xbfb1cf92	-1.389147
58	0x3fe66bac	1.8001609
59	0x3f4c652c	0.79841876
60	0x3f3728ea	0.71546805
61	0x3f934b7e	1.1507413
62	0xbfe9a0b0	-1.8252163
63	0x3fdc5f4d	1.7216583
64	0xbf0b1596	-0.5432981
65	0xbfb0d4a5	-1.3814894
66	0x3fe3130a	1.7740185
67	0x3f2a9268	0.6662965
68	0x3f499bc5	0.7875331
69	0x3f10ab39	0.56511265
70	0x3e6d434f	0.23170207
71	0xbf776219	-0.9663406
72	0xc0177c0f	-2.366947
73	0x3ebf209a	0.3732956
74	0x3f81575b	1.0104784
75	0x3e2d2a83	0.16910748
76	0x3ed820fc	0.42212665
77	0xbeca1b32	-0.39473873
78	0xbf2bd6d2	-0.67124665
79	0xc00ec6c1	-2.230881
80	0xbe550204	-0.2080155
81	0x3ed4bc5c	0.41549957
82	0x3efa171b	0.48845753
83	0x3c53f033	0.012935686
84	0xc017e799	-2.3735106
85	0x3ed563b0	0.41677618
86	0xbec98afe	-0.39363855
87	0x3f6501ce	0.8945588
88	0xbed7bf0c	-0.42137945
89	0x3f26b4ef	0.6511983
90	0x3e91471f	0.28374574
91	0xbfeb7804	-1.8396001
92	0x3f49e6fa	0.7886807
93	0x3fb7f4c1	1.4371568
94	0x3dcb2ba5	0.09920434
95	0xc02efa91	-2.7340434
96	0xbf27e98c	-0.6559074
97	0x3d7b36db	0.06133161
98	0x400013f7	2.0012186
99	0x400cacc0	2.1980438
100	0xbf6bd7e5	-0.92126304
101	0xbf97fac5	-1.1873404
102	0xbe25a8f1	-0.16177727
103	0x3f033fa4	0.5126898
104	0x3e50a027	0.20373593
105	0xbf452b66	-0.77019346
106	0x3e009baa	0.12559381
107	0x3e1f306d	0.15545817
108	0xbdb93ae0	-0.09044433
109	0xbe914e04	-0.28379834
110	0x3e08eecf	0.13372348
111	0xbf64e56a	-0.8941256
112	0x3da36466	0.07978134
113	0x3f8e6ecf	1.1127566
114	0xbbb09324	-0.0053886343
115	0x3f3f297c	0.74672675
116	0x3f2e8026	0.6816429
117	0xbf429fbb	-0.7602498
118	0xbf851f37	-1.0400151
119	0xbf35df53	-0.7104389
120	0x3f351d3e	0.70747745
121	0x3fdd7e18	1.7304106
122	0x3f80c5d2	1.006037
123	0x3ca2bc8e	0.0198653
124	0xbed7efde	-0.42175192
125	0xbf6f649a	-0.9351288
126	0xbe3b64cb	-0.18300168
127	0xbeff4cf9	-0.49863413

fc.0.weight f4 [64, 48]
0	0x3dd94e32	0.10610618
1	0xbde01a24	-0.10942486
2	0xbcf3a8d0	-0.029743582
3	0xbde8d26e	-0.11368261
4	0x3dc26695	0.09492222
5	0xbcc74a50	-0.024327427
6	0x3cefe970	0.029286116
7	0xbdfce2f4	-0.123479754
8	0xbe01bd17	-0.12669788
9	0x3de55d81	0.11199475
10	0xbd923974	-0.071398646
11	0xbe07041a	-0.13185158
12	0xbb65f740	-0.003509
13	0xbae2e170	-0.0017309617
14	0xbde09efc	-0.10967824
15	0xbc3289a5	-0.010897075
16	0xbdbe090f	-0.092790715
17	0x3deeec86	0.11666207
18	0xbdfe0cc9	-0.12404782
19	0x3cb140c5	0.02163733
20	0xbd85589a	-0.0651104
21	0x3ddd4359	0.10803861
22	0xbd10b8a8	-0.035332352
23	0xbdb5f4ed	-0.088846065
24	0xbe0421ab	-0.12903468
25	0xbd6e123b	-0.058122855
26	0xbd267d6c	-0.040646955
27	0x3dc96b35	0.09834901
28	0xbca70285	-0.020386944
29	0xbd4e3383	-0.050342094
30	0xbda0d307	-0.0785275
31	0x3da4c15e	0.08044694
32	0xbd43439e	-0.047671907
33	0x3d17cdc1	0.037061457
34	0xbde06b5c	-0.10957977
35	0xbdc28646	-0.09498267
36	0x3e13578c	0.14388865
37	0x3e0e09e9	0.13870968
38	0x3d64bcaf	0.055844005
39	0x3da22902	0.07917978
40	0xbd036345	-0.032077093
41	0x3da306f7	0.07960313
42	0x3d7488dd	0.059700835
43	0x3dbca1f9	0.09210581
44	0xbd20edf7	-0.03928944
45	0xbda2d43d	-0.079506375
46	0x3c9e7c07	0.01934625
47	0xbdba03fc	-0.09082791
48	0x3e13a45d	0.14418168
49	0xbe0eabd6	-0.13932738
50	0x3dfb7681	0.12278462
51	0xbe90596c	-0.28193223
52	0xbd5ef575	-0.054433305
53	0xbdd1adb1	-0.10238207
54	0xbdb5dc7e	-0.08879946
55	0x3c4f09e9	0.01263664
56	0xbe1eea9b	-0.15519182
57	0x3cdc00b2	0.0268558
58	0x3d443b51	0.04790813
59	0x3d9579fb	0.072986566
60	0x3d26f055	0.040756542
61	0x3d518bd9	0.05115876
62	0xbe051c86	-0.12999162
63	0xbdf87f5e	-0.12133668
64	0xbc96a3c0	-0.018388629
65	0x3dc733e8	0.09726697
66	0x3c785cc5	0.015158837
67	0x3d1cbd0d	0.03826623
68	0x3d3a3a8c	0.04546599
69	0xbd0dfa56	-0.034662567
70	0x3d1c54c1	0.038166765
71	0xbdb1d0de	-0.086824164
72	0x3c12e977	0.008966795
73	0x3c7713d1	0.015080408
74	0xbdfb4b27	-0.122701935
75	0x3d57a6ee	0.05264943
76	0xbcaf4be2	-0.021398488
77	0x3e05cc18	0.13066137
78	0xbec21f0d	-0.37914315
79	0x3d677792	0.056510516
80	0xbd2142c7	-0.039370324
81	0x3ddd673c	0.10810706
82	0xbcf2ab69	-0.02962275
83	0x3c3cd2f1	0.011524902
84	0xbd4312fd	-0.04762553
85	0x3e351f17	0.17687641
86	0xbd0033de	-0.031299464
87	0xbe65316b	-0.22382133
88	0xbdae6ac1	-0.085164554
89	0xbcb98072	-0.022644255
90	0x3e008ff4	0.12554914
91	0xbd9e2002	-0.07720949
92	0xbd6694da	-0.0562943
93	0x3e387618	0.18013799
94	0x3b62e22d	0.0034619675
95	0x3d92682a	0.07148774
96	0x3db28669	0.08717043
97	0x3c743840	0.014905989
98	0xb9db4ac9	-0.00041826654
99	0x3ebf3da8	0.37351727
100	0xbd6e7e06	-0.058225654
101	0xbca71919	-0.02039771
102	0xbddac479	-0.106820054
103	0x3dbb6df7	0.091518335
104	0x3d74754b	0.05968217
105	0x3cd17379	0.025567757
106	0xbe11b94d	-0.14230843
107	0x3d97a0dd	0.07403729
108	0xbd101cae	-0.0351836
109	0x3d31555f	0.043294307
110	0xbd53e9b7	-0.05173656
111	0xbbec4b02	-0.00721109
112	0xbda3a61b	-0.079906665
113	0xbd75e271	-0.060030404
114	0x3da5960f	0.08085262
115	0x3d23a29b	0.039949995
116	0xbde97c25	-0.11400632
117	0x3d51a8cb	0.051186364
118	0xbb5c2dac	-0.0033596558
119	0x3daa87b1	0.08326662
120	0x3d88f3f9	0.06687159
121	0x3db8dff6	0.09027092
122	0x3e21e1be	0.1580877
123	0xbc6a8912	-0.014314907
124	0x3e083092	0.13299778
125	0xbd8201ea	-0.06348021
126	0x3c886d8b	0.016653797
127	0x3dfb13bf	0.12259626
128	0xbddc5353	-0.1075808
129	0xbdd64a97	-0.10463446
130	0xbd879135	-0.06619493
131	0xbd815eda	-0.063169196
132	0x3d213a35	0.03936215
133	0xbd15f013	-0.036605906
134	0xbe1e6218	-0.15467107
135	0x3d3d768c	0.046255633
136	0xbd784c4c	-0.060619637
137	0x3d952658	0.07282704
138	0xbe0fc979	-0.140417
139	0x3cfe4976	0.031040888
140	0xbbd1ddac	-0.006404599
141	0x3cfaa96b	0.030598363
142	0x3e0a6d36	0.13518223
143	0xbda2ab35	-0.079428114
144	0x3cf5d857	0.030010385
145	0x3dcb8e7b	0.09939285
146	0xbd6c0c59	-0.057628963
147	0x3b908eb5	0.0044115433
148	0x3c319343	0.010838333
149	0x3e085b2e	0.13316032
150	0xbdeb0d5e	-0.11477159
151	0xbcb2aef5	-0.021811942
152	0xbdcf14fd	-0.10111425
153	0x3dce147d	0.100625016
154	0x3decff34	0.11572114
155	0xbd19b8ae	-0.03752964
156	0xbdb7a498	-0.08966941
157	0xbde771f0	-0.11301029
158	0xbcdb8ec8	-0.026801482
159	0x3d7f59cc	0.062341496
160	0xbd9cc886	-0.07655434
161	0x3da9f007	0.08297735
162	0xbe018f6a	-0.12652364
163	0x3de9c64c	0.11414775
164	0xbdaf0ef7	-0.08547776
165	0x3c1e518e	0.009662999
166	0xbd8acf42	-0.067778125
167	0xbd501464	-0.050800696
168	0xbda201de	-0.079105124
169	0x3d32103d	0.043472517
170	0x3b2cf908	0.0026393551
171	0xbdb606a0	-0.08887982
172	0x3dbba981	0.0916319
173	0xbdb842f1	-0.08997143
174	0x3dc6d1a1	0.09707952
175	0xbdfe8e1c	-0.12429449
176	0x3c6541ad	0.013992709
177	0xbdedb331	-0.11606444
178	0x3ddbe961	0.10737873
179	0xbc962030	-0.018325895
180	0xbc024fe0	-0.007953614
181	0xbdb16fd3	-0.08663907
182	0xbdf6cb40	-0.120504856
183	0x3cbcb0e9	0.023033576
184	0x3dfb576a	0.12272532
185	0x3cdfc234	0.027314283
186	0xbd7b0ec6	-0.061293386
187	0xbd9e83f9	-0.077400155
188	0x3e015d7c	0.12633318
189	0xbdbabe45	-0.09118322
190	0xbdb9f5c2	-0.09080078
191	0x3d9f6bf6	0.07784264
192	0xbdef9b2e	-0.1169952
193	0x3d6f2c56	0.05839189
194	0x3d3a32a7	0.045458462
195	0x3de78d5d	0.1130626
196	0xbe0ef0d9	-0.13959064
197	0x3d2c071f	0.04199898
198	0x3d35bff0	0.0443725
199	0xbdc3cca8	-0.095605195
200	0xbd8d5074	-0.06900111
201	0x3e042e54	0.12908298
202	0xbde2f97a	-0.1108274
203	0xbdfd1cb9	-0.12358994
204	0x3d8c3d33	0.0684761
205	0xbdaf95a6	-0.08573465
206	0xbbce063f	-0.0062873657
207	0x3e07cfca	0.13262859
208	0xbdfc3b12	-0.12315954
209	0x3e09ec88	0.13469136
210	0x3cc17213	0.023613965
211	0x3c37f11f	0.011226921
212	0x3dbd07bd	0.092299916
213	0x3e0885f9	0.13332357
214	0x3df14ce8	0.11782247
215	0xbb990d4c	-0.0046707746
216	0xbd02b325	-0.031909127
217	0xbd995c47	-0.07488304
218	0xbbbffeb2	-0.0058592195
219	0xbe08167f	-0.13289832
220	0x3cc90b6b	0.024541577
221	0x3b8f308c	0.004369801
222	0xbdda1830	-0.10649145
223	0xbc8b88ce	-0.017033007
224	0xbe013b11	-0.12620188
225	0x3df5a799	0.11994857
226	0x3d18671c	0.037207708
227	0xbd907385	-0.070532836
228	0x3c3e7c28	0.011626281
229	0x3dcd9659	0.10038442
230	0xbdea8650	-0.11451399
231	0xbdac3067	-0.084076695
232	0x3dc3e47d	0.09565065
233	0x3dae1d1a	0.085016444
234	0x3e034820	0.12820482
235	0x3c8c7a89	0.017148273
236	0xbc45f5db	-0.012082542
237	0x3dd023ed	0.10163102
238	0x3d5e5bf5	0.054286916
239	0xbcfabf89	-0.03060891
240	0x3db96bdc	0.09053776
241	0x3de8ff54	0.11376825
242	0x3dcf9059	0.10134954
243	0xbe766216	-0.24060854
244	0x3d577cfa	0.05260942
245	0x3e007e99	0.12548293
246	0x3d9bc1a2	0.07605292
247	0xbddc0df9	-0.107448526
248	0x3df25523	0.11832645
249	0xbddbbd8e	-0.10729514
250	0xbdcc26f3	-0.099683665
251	0x3dfe3eac	0.124142975
252	0xbdbdd474	-0.09269038
253	0xbdeca1f7	-0.1155433
254	0x3b0a26e2	0.0021080305
255	0x3dcd154d	0.100138284

fc.0.bias f4 [64]
0	0xbe132231	-0.14368512
1	0x3d5b7f33	0.053588104
2	0xbe0f169f	-0.13973473
3	0xbcf9c0ff	-0.030487536
4	0xbdcc5404	-0.09976962
5	0x3e2d1323	0.16901831
6	0x3c8420aa	0.016128857
7	0x3e478ce0	0.19487333
8	0xbe03a706	-0.12856683
9	0xbd1e3971	-0.038629
10	0x3c501a5a	0.012701595
11	0xbe11cc7b	-0.1423816
12	0x3e15dd86	0.14635286
13	0x3da8dddb	0.082454406
14	0x3e331227	0.17487393
15	0xbdb75f8e	-0.089537725
16	0xbcf8fdb1	-0.030394407
17	0x3e36c99d	0.17850347
18	0xbcdc1f6f	-0.026870457
19	0x3e2a9fea	0.16662565
20	0x3dfc0a61	0.12306667
21	0x3c416918	0.011804841
22	0x3d08b35d	0.03337418
23	0x3d506a54	0.050882652
24	0xbdbf0d4f	-0.0932871
25	0x3e010ced	0.12602587
26	0x3d098349	0.03357247
27	0x3e428ada	0.1899828
28	0xbbba8b87	-0.0056929025
29	0x3d0db397	0.0345951
30	0xbd62993b	-0.055321913
31	0x3dfa0269	0.12207491
32	0xbe0ee514	-0.13954574
33	0x3d68da4c	0.05684881
34	0xbdaf2eca	-0.08553846
35	0x3d83a21b	0.064274035
36	0x3d105751	0.03523952
37	0xbe15fc79	-0.14647092
38	0x3d5c7f28	0.053832203
39	0xbe20de87	-0.15709887
40	0x3d92bf0c	0.071653455
41	0x3c833b98	0.016019627
42	0xbdc5d3a3	-0.09659507
43	0x3db45678	0.08805555
44	0xbd50659a	-0.050878145
45	0xbe0b9487	-0.13630877
46	0xbd8c26c5	-0.06843332
47	0xbda43d1e	-0.0801947
48	0xbd8d8d48	-0.06911713
49	0x3d64fef4	0.055907205
50	0xbdc8a26c	-0.097966045
51	0x3d04803f	0.032348868
52	0x3dd391ff	0.10330581
53	0xbc974ada	-0.01846831
54	0x3de07d7b	0.109614335
55	0x3db0cd45	0.08632902
56	0xbe0ad8d0	-0.1355927
57	0xbd9030cf	-0.070405595
58	0x3af19a93	0.0018432908
59	0x3dee2944	0.116289645
60	0xbddafe07	-0.10692983
61	0x3cdbdd43	0.026838904
62	0x3c60fd5d	0.0137322815
63	0x3dfe294b	0.1241022

fc.2.weight f4 [6, 64]
0	0xbc3a44e0	-0.01136896
1	0x3d14a7e4	0.036292925
2	0x3d018549	0.03162125
3	0xbddbf888	-0.10740763
4	0xbddbe296	-0.10736577
5	0xbdd9cd3c	-0.106348485
6	0xbdad1b35	-0.08452455
7	0x3d8a8653	0.067639016
8	0x3c86a340	0.016435266
9	0xbcd1a657	-0.025592012
10	0xbd5d5431	-0.05403537
11	0xbdc50dbe	-0.09621762
12	0xbd576ce6	-0.052594088
13	0xbda39e66	-0.079891965
14	0xbdc251e6	-0.09488277
15	0x3ca60c80	0.020269632
16	0xbd9d1744	-0.07670453
17	0xbdb85042	-0.08999683
18	0x3d9a676a	0.07539256
19	0x3d843519	0.0645544
20	0x3d5eb979	0.0543761
21	0xbdc7c2f1	-0.09753979
22	0xbd582c60	-0.052776694
23	0xbcaefaf7	-0.021359904
24	0xbd372174	-0.044709638
25	0xbd4bc0d2	-0.049744435
26	0xbdbe2769	-0.09284861
27	0xbd3fec30	-0.046856105
28	0x3d192ac8	0.037394315
29	0xbddb6fcc	-0.10714683
30	0x3b8bad39	0.004262593
31	0xbd6a5e08	-0.05721858
32	0x3cdcfbf8	0.026975617
33	0x3c2d0f40	0.010562718
34	0xbb983fc0	-0.0046462715
35	0x3d47eff1	0.04881281
36	0x3c8560cf	0.016281513
37	0xbe0266c0	-0.12734509
38	0xbdc0e9c8	-0.0941959
39	0x3c863e10	0.016387016
40	0xbdf41c42	-0.11919452
41	0x3d66ae98	0.05631885
42	0xbded8792	-0.115981236
43	0x3c3cc2c8	0.011521049
44	0xbd430110	-0.047608435
45	0x3da03a0a	0.0782357
46	0x3dacc7a8	0.08436519
47	0xbbc9e860	-0.0061617345
48	0xbc99638d	-0.018724227
49	0x3df6a42c	0.12043032
50	0xbde2778c	-0.11057958
51	0x3da57626	0.08079176
52	0xbe0893eb	-0.13337676
53	0xbe151ab1	-0.14560963
54	0xbe0fa770	-0.14028716
55	0xbc4a1829	-0.012334862
56	0xbb8ef2c0	-0.004362434
57	0xbd087132	-0.033311076
58	0xbd032e7c	-0.032026753
59	0xbdd7af50	-0.10531485
60	0xbd61122f	-0.05494898
61	0xbcd732e0	-0.026269376
62	0x3d2e0b0b	0.042491
63	0xbd706c4e	-0.058697037
64	0x3de0a31a	0.10968609
65	0xbdc0bbbd	-0.09410808
66	0x3d394c54	0.045238808
67	0x3d943cfa	0.07238193
68	0xbd2cb580	-0.04216528
69	0x3dbad52d	0.09122691
70	0xbd7e568b	-0.062094253
71	0xbe05541a	-0.13020363
72	0xbc940ec0	-0.01807344
73	0x3dd39a00	0.103321075
74	0xbab34be8	-0.0013679238
75	0xbc2f0fd4	-0.010684926
76	0xbc98bd76	-0.01864503
77	0xbda1abe9	-0.078941174
78	0xbce605c0	-0.028078914
79	0xbc373c40	-0.011183798
80	0x3dc64fc1	0.096831806
81	0xbd937f24	-0.072019845
82	0xbdd86046	-0.10565238
83	0xbdbdf2db	-0.09274837
84	0xbdadf536	-0.08494036
85	0xbde24a5d	-0.1104934
86	0x3c281a90	0.010260239
87	0xbcf495f7	-0.029856665
88	0x3db34282	0.0875292
89	0xbcef7aa1	-0.029233279
90	0xbdae721f	-0.085178606
91	0x3ddd86b3	0.108167075
92	0x3dd27634	0.10276452
93	0xbdc2f0c8	-0.09518582
94	0x3ddd78b6	0.108140394
95	0xbd072cff	-0.033001896
96	0xbc9760c8	-0.018478766
97	0xbdfd063a	-0.12354703
98	0xbd2f3de4	-0.042783633
99	0xbd8a5efa	-0.067563966
100	0xbc168c6c	-0.009188753
101	0xbd9debad	-0.07710967
102	0xbc8d8f60	-0.01728028
103	0x3d87028b	0.06592282
104	0xbda4ca88	-0.08046442
105	0xbe08f006	-0.13372812
106	0x3c508851	0.012727813
107	0x3d8d3862	0.0689552
108	0x3de06dea	0.109584644
109	0xbd4b60c6	-0.049652837
110	0x3c9e5e69	0.019332128
111	0x3d2200f8	0.039551705
112	0x3c43f2d9	0.011959755
113	0xbe0cc2be	-0.13746163
114	0x3dfd0228	0.12353927
115	0xbd98c820	-0.07460046
116	0x3dd20698	0.10255164
117	0x3c0478a9	0.008085408
118	0xbb5555d8	-0.0032552388
119	0x3d08f14e	0.03343325
120	0x3d83ae5e	0.06429742
121	0x3dc7d142	0.0975671
122	0x3c40595d	0.011740056
123	0x3d8590bc	0.065217465
124	0xbde34d25	-0.110986985
125	0xbacf7880	-0.0015828758
126	0xbd43a336	-0.047763072
127	0xbb62a410	-0.0034582652
128	0x3d8586de	0.065198645
129	0xbca0427f	-0.019562958
130	0xbc456a1b	-0.012049223
131	0xbd6dc0f4	-0.058045343
132	0x3dad0508	0.08448225
133	0x3b95bdfe	0.004569768
134	0xbd908b0d	-0.07057772
135	0xbda42e43	-0.08016636
136	0xbb368140	-0.0027848035
137	0xbe0b4b3c	-0.13602918
138	0xbcdf058b	-0.027224323
139	0xbc0ca063	-0.008583161
140	0xbda053e7	-0.07828503
141	0xbde7531a	-0.11295147
142	0xbdea4d14	-0.11440483
143	0xbbf60b20	-0.0075086504
144	0xbdaa0263	-0.083012365
145	0x3c4b725f	0.012417405
146	0xbdd422d7	-0.10358208
147	0x3d185b7e	0.03719663
148	0x3d51d2c3	0.05122639
149	0x3c0c3367	0.008557177
150	0x3c86a130	0.016434282
151	0x3d019f7d	0.03164624
152	0x3db07648	0.0861631
153	0xbddb0d90	-0.10695946
154	0x3d256b76	0.040385686
155	0xbdc4ed52	-0.09615578
156	0xbdb777b4	-0.089583784
157	0x3d886d74	0.066615015
158	0x3dd3cbc2	0.10341598
159	0xbd8773b9	-0.06613869
160	0x3dc3d4ac	0.09562048
161	0xbd94db1a	-0.07268353
162	0xbc338810	-0.010957733
163	0x3df2615b	0.11834975
164	0xbdbef5bc	-0.09324214
165	0x3d8fb416	0.070167705
166	0xbdb45491	-0.08805192
167	0xbcd8f0e8	-0.02648206
168	0x3d02aed8	0.031905025
169	0x3d615efa	0.055022217
170	0xbcc694f2	-0.024240945
171	0x3bf6f962	0.007537053
172	0x3db957ae	0.09049927
173	0xbd6212a2	-0.05519355
174	0x3d078777	0.033088174
175	0xbdc3bf32	-0.09557952
176	0x3caa70b1	0.020805689
177	0xbdabd772	-0.08390702
178	0xbdb16fca	-0.086639
179	0xbdad83a6	-0.084723756
180	0xbd93e3bb	-0.072211705
181	0xbda0535b	-0.07828399
182	0x3d4bd1a9	0.049760494
183	0xbda4ba13	-0.08043303
184	0x3da4c846	0.080460116
185	0xbc4ac511	-0.012376086
186	0x3d9b306f	0.07577597
187	0x3d9e0194	0.07715145
188	0xbd42bafd	-0.047541607
189	0x3ca33cf8	0.019926533
190	0x3d7384ba	0.05945275
191	0x3d8e8917	0.069597416
192	0x3da2dba6	0.07952051
193	0x3d21fd80	0.039548397
194	0x3d37f0ae	0.044907264
195	0x3d0600b8	0.03271553
196	0xbd8f0d06	-0.06984906
197	0x3c02094b	0.007936786
198	0x3cf362e4	0.02971024
199	0xbd06807d	-0.03283738
200	0x3db309d8	0.08742112
201	0xbdcf5a97	-0.101247005
202	0xbe248d86	-0.16069612
203	0xbb5bdcd4	-0.0033548372
204	0xbd89e9fb	-0.06734081
205	0xbdefcc64	-0.11708906
206	0xb8d6648c	-0.000102230435
207	0x3dee4320	0.11633897
208	0xbd7a72c9	-0.061144624
209	0x3d0984d7	0.03357395
210	0xbe0f9c39	-0.14024438
211	0xbe0fad15	-0.1403087
212	0xbdbd0fd4	-0.092315346
213	0x3d7c04ac	0.061527893
214	0xbd1be1a4	-0.038056985
215	0xbdbdd184	-0.092684776
216	0x3d6b9a30	0.05752009
217	0x3da0a981	0.0784483
218	0x3c67a6cf	0.014138891
219	0x3d96f2e1	0.07370544
220	0x3d802458	0.06256932
221	0xbbc3a2a4	-0.005970316
222	0xbc2632bd	-0.010143933
223	0xbe063ff4	-0.13110334
224	0xbd7921f4	-0.060823396
225	0x3da6704e	0.08126889
226	0x3decac6e	0.11556326
227	0x3db38a83	0.087666534
228	0x3aa21a87	0.0012367525
229	0xbd841bcc	-0.06450614
230	0xbe0455d3	-0.12923364
231	0xbe1037e4	-0.1408382
232	0xbb0e7c1b	-0.0021741453
233	0xbdd38ee9	-0.10329992
234	0x3ca559ca	0.020184416
235	0xbd90d435	-0.07071725
236	0xbdd0d838	-0.101974905
237	0xbcd7f37a	-0.026361216
238	0x3ca7b147	0.020470275
239	0xbde07eea	-0.10961707
240	0xbda1b67f	-0.078961365
241	0xbd29464b	-0.041326802
242	0x3deb54f0	0.1149081
243	0x3da01996	0.0781738
244	0xbd2d491e	-0.042306058
245	0xbcf9a16d	-0.030472482
246	0x3d793f78	0.060851544
247	0xbaf4d0f8	-0.0018678
248	0xbce3a760	-0.027789772
249	0x3d193fd3	0.037414383
250	0x3d19aae6	0.037516497
251	0xbd21db62	-0.03951586
252	0xbd7e5d54	-0.062100723
253	0xbd955ec0	-0.07293463
254	0xbc282cf8	-0.010264628
255	0x3d3cb266	0.04606857

fc.2.bias f4 [6]
0	0xbde1e13d	-0.11029289
1	0xbdd88698	-0.10572547
2	0xba35bbbf	-0.00069325784
3	0xbde6e40e	-0.11273967
4	0x3df20d41	0.11818934
5	0xbe059616	-0.13045534
